mlkit/testData/projects/projectWithTwoModulesButOnlyOneEnabled/app/src/main/ml/mobilenet_v1_0.25_160_quantized.tflite (tflite, 508786 bytes, 28 tensors)

MobilenetV1/Logits/Conv2d_1c_1x1/weights_quant/FakeQuantWithMinMaxVars u1 [1001, 1, 1, 256] scale=0.0061503593 zero_point=85
0	0x54	-0.0061503593
1	0x51	-0.024601437
2	0x53	-0.012300719
3	0x53	-0.012300719
4	0x52	-0.018451078
5	0x52	-0.018451078
6	0x53	-0.012300719
7	0x52	-0.018451078
8	0x52	-0.018451078
9	0x50	-0.030751796
10	0x53	-0.012300719
11	0x54	-0.0061503593
12	0x4f	-0.036902156
13	0x53	-0.012300719
14	0x53	-0.012300719
15	0x53	-0.012300719
16	0x53	-0.012300719
17	0x53	-0.012300719
18	0x54	-0.0061503593
19	0x54	-0.0061503593
20	0x53	-0.012300719
21	0x53	-0.012300719
22	0x52	-0.018451078
23	0x52	-0.018451078
24	0x50	-0.030751796
25	0x53	-0.012300719
26	0x53	-0.012300719
27	0x50	-0.030751796
28	0x50	-0.030751796
29	0x51	-0.024601437
30	0x54	-0.0061503593
31	0x54	-0.0061503593
32	0x53	-0.012300719
33	0x53	-0.012300719
34	0x54	-0.0061503593
35	0x52	-0.018451078
36	0x53	-0.012300719
37	0x53	-0.012300719
38	0x53	-0.012300719
39	0x53	-0.012300719
40	0x53	-0.012300719
41	0x53	-0.012300719
42	0x54	-0.0061503593
43	0x52	-0.018451078
44	0x52	-0.018451078
45	0x53	-0.012300719
46	0x54	-0.0061503593
47	0x54	-0.0061503593
48	0x52	-0.018451078
49	0x53	-0.012300719
50	0x53	-0.012300719
51	0x52	-0.018451078
52	0x53	-0.012300719
53	0x53	-0.012300719
54	0x53	-0.012300719
55	0x53	-0.012300719
56	0x53	-0.012300719
57	0x53	-0.012300719
58	0x53	-0.012300719
59	0x52	-0.018451078
60	0x52	-0.018451078
61	0x53	-0.012300719
62	0x54	-0.0061503593
63	0x51	-0.024601437
64	0x53	-0.012300719
65	0x53	-0.012300719
66	0x53	-0.012300719
67	0x53	-0.012300719
68	0x51	-0.024601437
69	0x52	-0.018451078
70	0x52	-0.018451078
71	0x53	-0.012300719
72	0x53	-0.012300719
73	0x52	-0.018451078
74	0x50	-0.030751796
75	0x53	-0.012300719
76	0x53	-0.012300719
77	0x52	-0.018451078
78	0x53	-0.012300719
79	0x53	-0.012300719
80	0x53	-0.012300719
81	0x53	-0.012300719
82	0x52	-0.018451078
83	0x53	-0.012300719
84	0x53	-0.012300719
85	0x53	-0.012300719
86	0x53	-0.012300719
87	0x53	-0.012300719
88	0x53	-0.012300719
89	0x52	-0.018451078
90	0x53	-0.012300719
91	0x53	-0.012300719
92	0x53	-0.012300719
93	0x52	-0.018451078
94	0x53	-0.012300719
95	0x53	-0.012300719
96	0x53	-0.012300719
97	0x53	-0.012300719
98	0x53	-0.012300719
99	0x53	-0.012300719
100	0x53	-0.012300719
101	0x52	-0.018451078
102	0x53	-0.012300719
103	0x53	-0.012300719
104	0x52	-0.018451078
105	0x53	-0.012300719
106	0x53	-0.012300719
107	0x53	-0.012300719
108	0x51	-0.024601437
109	0x53	-0.012300719
110	0x53	-0.012300719
111	0x51	-0.024601437
112	0x53	-0.012300719
113	0x52	-0.018451078
114	0x53	-0.012300719
115	0x53	-0.012300719
116	0x53	-0.012300719
117	0x53	-0.012300719
118	0x53	-0.012300719
119	0x52	-0.018451078
120	0x53	-0.012300719
121	0x53	-0.012300719
122	0x53	-0.012300719
123	0x51	-0.024601437
124	0x53	-0.012300719
125	0x53	-0.012300719
126	0x53	-0.012300719
127	0x51	-0.024601437
128	0x54	-0.0061503593
129	0x53	-0.012300719
130	0x53	-0.012300719
131	0x54	-0.0061503593
132	0x53	-0.012300719
133	0x52	-0.018451078
134	0x53	-0.012300719
135	0x51	-0.024601437
136	0x53	-0.012300719
137	0x52	-0.018451078
138	0x53	-0.012300719
139	0x53	-0.012300719
140	0x53	-0.012300719
141	0x52	-0.018451078
142	0x53	-0.012300719
143	0x52	-0.018451078
144	0x52	-0.018451078
145	0x53	-0.012300719
146	0x53	-0.012300719
147	0x53	-0.012300719
148	0x52	-0.018451078
149	0x53	-0.012300719
150	0x53	-0.012300719
151	0x53	-0.012300719
152	0x53	-0.012300719
153	0x53	-0.012300719
154	0x53	-0.012300719
155	0x53	-0.012300719
156	0x54	-0.0061503593
157	0x53	-0.012300719
158	0x53	-0.012300719
159	0x53	-0.012300719
160	0x53	-0.012300719
161	0x52	-0.018451078
162	0x51	-0.024601437
163	0x53	-0.012300719
164	0x53	-0.012300719
165	0x52	-0.018451078
166	0x53	-0.012300719
167	0x53	-0.012300719
168	0x53	-0.012300719
169	0x53	-0.012300719
170	0x53	-0.012300719
171	0x52	-0.018451078
172	0x53	-0.012300719
173	0x53	-0.012300719
174	0x53	-0.012300719
175	0x53	-0.012300719
176	0x53	-0.012300719
177	0x53	-0.012300719
178	0x53	-0.012300719
179	0x53	-0.012300719
180	0x52	-0.018451078
181	0x52	-0.018451078
182	0x53	-0.012300719
183	0x53	-0.012300719
184	0x53	-0.012300719
185	0x52	-0.018451078
186	0x53	-0.012300719
187	0x52	-0.018451078
188	0x52	-0.018451078
189	0x53	-0.012300719
190	0x53	-0.012300719
191	0x53	-0.012300719
192	0x52	-0.018451078
193	0x53	-0.012300719
194	0x52	-0.018451078
195	0x53	-0.012300719
196	0x53	-0.012300719
197	0x52	-0.018451078
198	0x53	-0.012300719
199	0x53	-0.012300719
200	0x53	-0.012300719
201	0x53	-0.012300719
202	0x52	-0.018451078
203	0x53	-0.012300719
204	0x52	-0.018451078
205	0x53	-0.012300719
206	0x53	-0.012300719
207	0x53	-0.012300719
208	0x53	-0.012300719
209	0x53	-0.012300719
210	0x53	-0.012300719
211	0x52	-0.018451078
212	0x50	-0.030751796
213	0x53	-0.012300719
214	0x53	-0.012300719
215	0x53	-0.012300719
216	0x53	-0.012300719
217	0x53	-0.012300719
218	0x53	-0.012300719
219	0x52	-0.018451078
220	0x53	-0.012300719
221	0x53	-0.012300719
222	0x53	-0.012300719
223	0x53	-0.012300719
224	0x54	-0.0061503593
225	0x53	-0.012300719
226	0x52	-0.018451078
227	0x53	-0.012300719
228	0x53	-0.012300719
229	0x52	-0.018451078
230	0x53	-0.012300719
231	0x54	-0.0061503593
232	0x53	-0.012300719
233	0x54	-0.0061503593
234	0x53	-0.012300719
235	0x53	-0.012300719
236	0x54	-0.0061503593
237	0x53	-0.012300719
238	0x53	-0.012300719
239	0x53	-0.012300719
240	0x54	-0.0061503593
241	0x53	-0.012300719
242	0x53	-0.012300719
243	0x52	-0.018451078
244	0x54	-0.0061503593
245	0x53	-0.012300719
246	0x52	-0.018451078
247	0x53	-0.012300719
248	0x52	-0.018451078
249	0x53	-0.012300719
250	0x52	-0.018451078
251	0x53	-0.012300719
252	0x53	-0.012300719
253	0x53	-0.012300719
254	0x53	-0.012300719
255	0x53	-0.012300719

MobilenetV1/MobilenetV1/Conv2d_0/weights_quant/FakeQuantWithMinMaxVars u1 [8, 3, 3, 3] scale=0.006891477 zero_point=100
0	0x6e	0.06891477
1	0x74	0.11026363
2	0x6b	0.048240338
3	0x6d	0.062023293
4	0x72	0.096480675
5	0x6b	0.048240338
6	0x5f	-0.034457386
7	0x5e	-0.04134886
8	0x65	0.006891477
9	0x78	0.13782954
10	0x81	0.19985282
11	0x6c	0.055131815
12	0x75	0.117155105
13	0x81	0.19985282
14	0x6c	0.055131815
15	0x62	-0.013782954
16	0x5b	-0.062023293
17	0x65	0.006891477
18	0x72	0.096480675
19	0x74	0.11026363
20	0x6a	0.04134886
21	0x6f	0.075806245
22	0x72	0.096480675
23	0x68	0.027565908
24	0x61	-0.02067443
25	0x5e	-0.04134886
26	0x63	-0.006891477
27	0x64	0.0
28	0x64	0.0
29	0x65	0.006891477
30	0x64	0.0
31	0x64	0.0
32	0x65	0.006891477
33	0x64	0.0
34	0x64	0.0
35	0x65	0.006891477
36	0x63	-0.006891477
37	0x64	0.0
38	0x65	0.006891477
39	0x64	0.0
40	0x64	0.0
41	0x65	0.006891477
42	0x64	0.0
43	0x64	0.0
44	0x65	0.006891477
45	0x64	0.0
46	0x64	0.0
47	0x65	0.006891477
48	0x63	-0.006891477
49	0x64	0.0
50	0x65	0.006891477
51	0x63	-0.006891477
52	0x63	-0.006891477
53	0x64	0.0
54	0x75	0.117155105
55	0x34	-0.33079088
56	0x82	0.20674431
57	0x80	0.19296135
58	0x17	-0.5306437
59	0x96	0.34457386
60	0x78	0.13782954
61	0x34	-0.33079088
62	0x83	0.21363579
63	0x81	0.19985282
64	0x29	-0.40659714
65	0x84	0.22052726
66	0x8e	0.28944203
67	0x01	-0.6822562
68	0x9f	0.40659714
69	0x80	0.19296135
70	0x1e	-0.4824034
71	0x8f	0.29633352
72	0x6a	0.04134886
73	0x41	-0.2412017
74	0x82	0.20674431
75	0x7c	0.16539544
76	0x26	-0.42727157
77	0x8c	0.27565908
78	0x74	0.11026363
79	0x3d	-0.2687676
80	0x78	0.13782954
81	0x64	0.0
82	0x65	0.006891477
83	0x65	0.006891477
84	0x63	-0.006891477
85	0x64	0.0
86	0x65	0.006891477
87	0x64	0.0
88	0x65	0.006891477
89	0x65	0.006891477
90	0x65	0.006891477
91	0x66	0.013782954
92	0x66	0.013782954
93	0x64	0.0
94	0x65	0.006891477
95	0x66	0.013782954
96	0x64	0.0
97	0x65	0.006891477
98	0x66	0.013782954
99	0x65	0.006891477
100	0x66	0.013782954
101	0x66	0.013782954
102	0x64	0.0
103	0x65	0.006891477
104	0x66	0.013782954
105	0x65	0.006891477
106	0x66	0.013782954
107	0x66	0.013782954
108	0x4b	-0.17228693
109	0x37	-0.31011647
110	0x57	-0.0895892
111	0x3f	-0.25498465
112	0x1f	-0.4755119
113	0x5a	-0.06891477
114	0x59	-0.075806245
115	0x4e	-0.15161249
116	0x5b	-0.062023293
117	0x9b	0.37903124
118	0xc4	0.66158175
119	0x7c	0.16539544
120	0xa1	0.4203801
121	0xd6	0.7856284
122	0x7a	0.15161249
123	0x85	0.22741874
124	0x9c	0.3859227
125	0x75	0.117155105
126	0x44	-0.22052726
127	0x31	-0.3514653
128	0x58	-0.08269772
129	0x3f	-0.25498465
130	0x1f	-0.4755119
131	0x58	-0.08269772
132	0x52	-0.12404659
133	0x49	-0.18606988
134	0x5c	-0.055131815
135	0x3d	-0.2687676
136	0x33	-0.33768237
137	0x5a	-0.06891477
138	0x99	0.36524826
139	0xb7	0.5719926
140	0x79	0.14472102
141	0x47	-0.19985282
142	0x42	-0.23431021
143	0x63	-0.006891477
144	0x2a	-0.39970565
145	0x01	-0.6822562
146	0x4c	-0.16539544
147	0xba	0.59266704
148	0xff	1.0681789
149	0x8a	0.26187614
150	0x3f	-0.25498465
151	0x19	-0.5168608
152	0x61	-0.02067443
153	0x3e	-0.26187614
154	0x30	-0.3583568
155	0x55	-0.10337216
156	0x96	0.34457386
157	0xb3	0.5444267
158	0x74	0.11026363
159	0x48	-0.19296135
160	0x3f	-0.25498465
161	0x63	-0.006891477
162	0x65	0.006891477
163	0x66	0.013782954
164	0x67	0.02067443
165	0x67	0.02067443
166	0x66	0.013782954
167	0x67	0.02067443
168	0x65	0.006891477
169	0x65	0.006891477
170	0x64	0.0
171	0x66	0.013782954
172	0x66	0.013782954
173	0x67	0.02067443
174	0x66	0.013782954
175	0x66	0.013782954
176	0x67	0.02067443
177	0x66	0.013782954
178	0x66	0.013782954
179	0x67	0.02067443
180	0x67	0.02067443
181	0x67	0.02067443
182	0x68	0.027565908
183	0x67	0.02067443
184	0x67	0.02067443
185	0x68	0.027565908
186	0x68	0.027565908
187	0x68	0.027565908
188	0x68	0.027565908
189	0x97	0.3514653
190	0x54	-0.11026363
191	0x40	-0.24809317
192	0xa0	0.41348863
193	0x4f	-0.14472102
194	0x3a	-0.28944203
195	0x6c	0.055131815
196	0x4c	-0.16539544
197	0x74	0.11026363
198	0x8e	0.28944203
199	0x2f	-0.36524826
200	0x6f	0.075806245
201	0xa6	0.45483747
202	0x4f	-0.14472102
203	0x37	-0.31011647
204	0x81	0.19985282
205	0x6b	0.048240338
206	0x3f	-0.25498465
207	0x89	0.25498465
208	0x66	0.013782954
209	0x3e	-0.26187614
210	0x80	0.19296135
211	0x4b	-0.17228693
212	0x61	-0.02067443
213	0x68	0.027565908
214	0x49	-0.18606988
215	0x7c	0.16539544

MobilenetV1/MobilenetV1/Conv2d_10_depthwise/weights_quant/FakeQuantWithMinMaxVars u1 [1, 3, 3, 128] scale=0.018290311 zero_point=136
0	0x8c	0.073161244
1	0x99	0.3109353
2	0x8d	0.091451555
3	0x83	-0.091451555
4	0x96	0.25606436
5	0x84	-0.073161244
6	0x8b	0.054870933
7	0x80	-0.14632249
8	0x83	-0.091451555
9	0x81	-0.12803218
10	0x89	0.018290311
11	0x84	-0.073161244
12	0x8b	0.054870933
13	0x83	-0.091451555
14	0x7d	-0.20119342
15	0x8a	0.036580622
16	0x87	-0.018290311
17	0x87	-0.018290311
18	0x8a	0.036580622
19	0x94	0.21948373
20	0x87	-0.018290311
21	0x85	-0.054870933
22	0x85	-0.054870933
23	0x88	0.0
24	0x85	-0.054870933
25	0x87	-0.018290311
26	0x84	-0.073161244
27	0x87	-0.018290311
28	0x8d	0.091451555
29	0x7d	-0.20119342
30	0x92	0.18290311
31	0x96	0.25606436
32	0x89	0.018290311
33	0x8b	0.054870933
34	0x8c	0.073161244
35	0x84	-0.073161244
36	0x86	-0.036580622
37	0x8c	0.073161244
38	0x87	-0.018290311
39	0x83	-0.091451555
40	0x8c	0.073161244
41	0x8b	0.054870933
42	0x92	0.18290311
43	0x88	0.0
44	0x85	-0.054870933
45	0x80	-0.14632249
46	0x84	-0.073161244
47	0x92	0.18290311
48	0x8a	0.036580622
49	0x8a	0.036580622
50	0x85	-0.054870933
51	0x9d	0.38409653
52	0x91	0.1646128
53	0x73	-0.38409653
54	0x76	-0.3292256
55	0x86	-0.036580622
56	0x80	-0.14632249
57	0x95	0.23777404
58	0x8d	0.091451555
59	0x87	-0.018290311
60	0x89	0.018290311
61	0x8e	0.10974187
62	0x84	-0.073161244
63	0x9d	0.38409653
64	0x83	-0.091451555
65	0x96	0.25606436
66	0x91	0.1646128
67	0xa0	0.43896747
68	0x88	0.0
69	0x8e	0.10974187
70	0x74	-0.36580622
71	0x86	-0.036580622
72	0x92	0.18290311
73	0x8f	0.12803218
74	0x87	-0.018290311
75	0x86	-0.036580622
76	0x86	-0.036580622
77	0x83	-0.091451555
78	0x87	-0.018290311
79	0x8c	0.073161244
80	0x99	0.3109353
81	0x8a	0.036580622
82	0x86	-0.036580622
83	0x93	0.20119342
84	0x87	-0.018290311
85	0x86	-0.036580622
86	0x85	-0.054870933
87	0x7c	-0.21948373
88	0x86	-0.036580622
89	0x83	-0.091451555
90	0x8b	0.054870933
91	0x88	0.0
92	0x87	-0.018290311
93	0x74	-0.36580622
94	0x88	0.0
95	0x83	-0.091451555
96	0x82	-0.10974187
97	0x86	-0.036580622
98	0x8a	0.036580622
99	0x87	-0.018290311
100	0x87	-0.018290311
101	0x85	-0.054870933
102	0x82	-0.10974187
103	0x84	-0.073161244
104	0x8e	0.10974187
105	0x89	0.018290311
106	0x88	0.0
107	0x8b	0.054870933
108	0x8f	0.12803218
109	0x8b	0.054870933
110	0x89	0.018290311
111	0x84	-0.073161244
112	0x7a	-0.25606436
113	0x8d	0.091451555
114	0x7f	-0.1646128
115	0x86	-0.036580622
116	0x89	0.018290311
117	0x89	0.018290311
118	0x7e	-0.18290311
119	0x7f	-0.1646128
120	0x84	-0.073161244
121	0x8e	0.10974187
122	0x89	0.018290311
123	0x87	-0.018290311
124	0x8e	0.10974187
125	0x80	-0.14632249
126	0x8b	0.054870933
127	0x87	-0.018290311
128	0x83	-0.091451555
129	0xcf	1.2986121
130	0x68	-0.58528996
131	0x83	-0.091451555
132	0x82	-0.10974187
133	0x92	0.18290311
134	0x61	-0.71332216
135	0x77	-0.3109353
136	0x7e	-0.18290311
137	0x7b	-0.23777404
138	0x96	0.25606436
139	0x7e	-0.18290311
140	0x92	0.18290311
141	0x81	-0.12803218
142	0x83	-0.091451555
143	0x83	-0.091451555
144	0x7d	-0.20119342
145	0x7d	-0.20119342
146	0x95	0.23777404
147	0xbd	0.96938646
148	0x7e	-0.18290311
149	0x83	-0.091451555
150	0x84	-0.073161244
151	0x77	-0.3109353
152	0x7b	-0.23777404
153	0x64	-0.6584512
154	0x82	-0.10974187
155	0x7f	-0.1646128
156	0x90	0.14632249
157	0x81	-0.12803218
158	0xbe	0.9876768
159	0x90	0.14632249
160	0x83	-0.091451555
161	0x87	-0.018290311
162	0x91	0.1646128
163	0x7e	-0.18290311
164	0x86	-0.036580622
165	0x84	-0.073161244
166	0x91	0.1646128
167	0x77	-0.3109353
168	0x8c	0.073161244
169	0x9a	0.3292256
170	0xae	0.6950318
171	0x82	-0.10974187
172	0x76	-0.3292256
173	0x77	-0.3109353
174	0x81	-0.12803218
175	0x94	0.21948373
176	0x90	0.14632249
177	0x89	0.018290311
178	0x82	-0.10974187
179	0xc5	1.115709
180	0xae	0.6950318
181	0x73	-0.38409653
182	0x8a	0.036580622
183	0x8b	0.054870933
184	0x81	-0.12803218
185	0x97	0.27435467
186	0x9a	0.3292256
187	0xd1	1.3351927
188	0x75	-0.3475159
189	0x9b	0.3475159
190	0xa6	0.54870933
191	0x88	0.0
192	0x8e	0.10974187
193	0xc0	1.0242574
194	0x90	0.14632249
195	0xd1	1.3351927
196	0x8e	0.10974187
197	0x80	-0.14632249
198	0x71	-0.42067716
199	0x89	0.018290311
200	0x90	0.14632249
201	0x9f	0.42067716
202	0x76	-0.3292256
203	0x7f	-0.1646128
204	0x82	-0.10974187
205	0x77	-0.3109353
206	0x95	0.23777404
207	0x8d	0.091451555
208	0x88	0.0
209	0x94	0.21948373
210	0x7f	-0.1646128
211	0x93	0.20119342
212	0x84	-0.073161244
213	0x79	-0.27435467
214	0x86	-0.036580622
215	0x71	-0.42067716
216	0x88	0.0
217	0x5c	-0.8047737
218	0x91	0.1646128
219	0x89	0.018290311
220	0xb1	0.7499027
221	0x6c	-0.5121287
222	0x7f	-0.1646128
223	0x8f	0.12803218
224	0x78	-0.29264498
225	0x82	-0.10974187
226	0x88	0.0
227	0x93	0.20119342
228	0x92	0.18290311
229	0x83	-0.091451555
230	0xc9	1.1888702
231	0x78	-0.29264498
232	0xa7	0.5669997
233	0x8d	0.091451555
234	0x91	0.1646128
235	0x9e	0.40238684
236	0x95	0.23777404
237	0x8e	0.10974187
238	0x93	0.20119342
239	0x7d	-0.20119342
240	0x82	-0.10974187
241	0x92	0.18290311
242	0x7b	-0.23777404
243	0x73	-0.38409653
244	0x8c	0.073161244
245	0x89	0.018290311
246	0x70	-0.43896747
247	0x7f	-0.1646128
248	0x7f	-0.1646128
249	0x90	0.14632249
250	0x80	-0.14632249
251	0x85	-0.054870933
252	0x86	-0.036580622
253	0x81	-0.12803218
254	0x87	-0.018290311
255	0x8c	0.073161244

MobilenetV1/MobilenetV1/Conv2d_10_pointwise/weights_quant/FakeQuantWithMinMaxVars u1 [128, 1, 1, 128] scale=0.013104957 zero_point=112
0	0x73	0.03931487
1	0x6e	-0.026209913
2	0x6c	-0.052419826
3	0x69	-0.09173469
4	0x6d	-0.03931487
5	0x77	0.09173469
6	0x73	0.03931487
7	0x6b	-0.06552479
8	0x6e	-0.026209913
9	0x6e	-0.026209913
10	0x72	0.026209913
11	0x6d	-0.03931487
12	0x70	0.0
13	0x7c	0.15725948
14	0x74	0.052419826
15	0x6d	-0.03931487
16	0x70	0.0
17	0x75	0.06552479
18	0x69	-0.09173469
19	0x73	0.03931487
20	0x69	-0.09173469
21	0x6f	-0.013104957
22	0x72	0.026209913
23	0x65	-0.14415452
24	0x6f	-0.013104957
25	0x76	0.07862974
26	0x70	0.0
27	0x70	0.0
28	0x71	0.013104957
29	0x6c	-0.052419826
30	0x74	0.052419826
31	0x7b	0.14415452
32	0x6f	-0.013104957
33	0x72	0.026209913
34	0x6e	-0.026209913
35	0x6a	-0.07862974
36	0x71	0.013104957
37	0x70	0.0
38	0x71	0.013104957
39	0x69	-0.09173469
40	0x70	0.0
41	0x6c	-0.052419826
42	0x74	0.052419826
43	0x6f	-0.013104957
44	0x73	0.03931487
45	0x6a	-0.07862974
46	0x71	0.013104957
47	0x70	0.0
48	0x6a	-0.07862974
49	0x6e	-0.026209913
50	0x72	0.026209913
51	0x78	0.10483965
52	0x70	0.0
53	0x6d	-0.03931487
54	0x73	0.03931487
55	0x6a	-0.07862974
56	0x6d	-0.03931487
57	0x72	0.026209913
58	0x70	0.0
59	0x68	-0.10483965
60	0x70	0.0
61	0x6e	-0.026209913
62	0x6a	-0.07862974
63	0x78	0.10483965
64	0x70	0.0
65	0x6c	-0.052419826
66	0x79	0.11794461
67	0x69	-0.09173469
68	0x73	0.03931487
69	0x6e	-0.026209913
70	0x6b	-0.06552479
71	0x6c	-0.052419826
72	0x6b	-0.06552479
73	0x74	0.052419826
74	0x70	0.0
75	0x72	0.026209913
76	0x74	0.052419826
77	0x70	0.0
78	0x6f	-0.013104957
79	0x71	0.013104957
80	0x70	0.0
81	0x70	0.0
82	0x70	0.0
83	0x7f	0.19657435
84	0x6b	-0.06552479
85	0x66	-0.13104957
86	0x71	0.013104957
87	0x6f	-0.013104957
88	0x6c	-0.052419826
89	0x6f	-0.013104957
90	0x7a	0.13104957
91	0x70	0.0
92	0x6f	-0.013104957
93	0x70	0.0
94	0x77	0.09173469
95	0x6d	-0.03931487
96	0x66	-0.13104957
97	0x71	0.013104957
98	0x74	0.052419826
99	0x76	0.07862974
100	0x73	0.03931487
101	0x62	-0.18346938
102	0x70	0.0
103	0x6b	-0.06552479
104	0x74	0.052419826
105	0x6f	-0.013104957
106	0x6d	-0.03931487
107	0x71	0.013104957
108	0x73	0.03931487
109	0x79	0.11794461
110	0x6f	-0.013104957
111	0x70	0.0
112	0x70	0.0
113	0x6e	-0.026209913
114	0x6f	-0.013104957
115	0x6f	-0.013104957
116	0x70	0.0
117	0x7a	0.13104957
118	0x74	0.052419826
119	0x73	0.03931487
120	0x6f	-0.013104957
121	0x75	0.06552479
122	0x6f	-0.013104957
123	0x6e	-0.026209913
124	0x70	0.0
125	0x6d	-0.03931487
126	0x6f	-0.013104957
127	0x64	-0.15725948
128	0x7c	0.15725948
129	0x76	0.07862974
130	0x79	0.11794461
131	0x6e	-0.026209913
132	0x64	-0.15725948
133	0x76	0.07862974
134	0x70	0.0
135	0x6f	-0.013104957
136	0x6f	-0.013104957
137	0x82	0.23588923
138	0x6c	-0.052419826
139	0x75	0.06552479
140	0x58	-0.31451896
141	0x6f	-0.013104957
142	0x7a	0.13104957
143	0x6c	-0.052419826
144	0x64	-0.15725948
145	0x67	-0.11794461
146	0x6b	-0.06552479
147	0x7a	0.13104957
148	0x7f	0.19657435
149	0x59	-0.301414
150	0x6a	-0.07862974
151	0x68	-0.10483965
152	0x62	-0.18346938
153	0x6d	-0.03931487
154	0x75	0.06552479
155	0x67	-0.11794461
156	0x7b	0.14415452
157	0x74	0.052419826
158	0x60	-0.2096793
159	0x73	0.03931487
160	0x76	0.07862974
161	0x79	0.11794461
162	0x5f	-0.22278427
163	0x75	0.06552479
164	0x64	-0.15725948
165	0x6c	-0.052419826
166	0x81	0.22278427
167	0x8f	0.40625367
168	0x7f	0.19657435
169	0x92	0.44556853
170	0x6b	-0.06552479
171	0x80	0.2096793
172	0x7f	0.19657435
173	0x7f	0.19657435
174	0x74	0.052419826
175	0x69	-0.09173469
176	0x74	0.052419826
177	0x5e	-0.23588923
178	0x87	0.301414
179	0x5e	-0.23588923
180	0x7d	0.17036444
181	0x7c	0.15725948
182	0x77	0.09173469
183	0x6c	-0.052419826
184	0x6d	-0.03931487
185	0x74	0.052419826
186	0x77	0.09173469
187	0x8b	0.35383382
188	0x6f	-0.013104957
189	0x60	-0.2096793
190	0x7a	0.13104957
191	0x77	0.09173469
192	0x62	-0.18346938
193	0x6a	-0.07862974
194	0x4d	-0.45867348
195	0x88	0.31451896
196	0x6c	-0.052419826
197	0x5e	-0.23588923
198	0x72	0.026209913
199	0x6e	-0.026209913
200	0x5b	-0.2752041
201	0x8a	0.34072888
202	0x6b	-0.06552479
203	0x70	0.0
204	0x6d	-0.03931487
205	0x74	0.052419826
206	0x70	0.0
207	0x7b	0.14415452
208	0x8b	0.35383382
209	0x7c	0.15725948
210	0x59	-0.301414
211	0x77	0.09173469
212	0x6b	-0.06552479
213	0x76	0.07862974
214	0x5d	-0.24899417
215	0x66	-0.13104957
216	0x6a	-0.07862974
217	0x8e	0.3931487
218	0x7f	0.19657435
219	0x65	-0.14415452
220	0x7b	0.14415452
221	0x6f	-0.013104957
222	0x6a	-0.07862974
223	0x60	-0.2096793
224	0x8c	0.36693877
225	0x73	0.03931487
226	0x6f	-0.013104957
227	0x74	0.052419826
228	0x68	-0.10483965
229	0x61	-0.19657435
230	0x6c	-0.052419826
231	0x7a	0.13104957
232	0x6e	-0.026209913
233	0x67	-0.11794461
234	0x6f	-0.013104957
235	0x62	-0.18346938
236	0x6e	-0.026209913
237	0x87	0.301414
238	0x67	-0.11794461
239	0x71	0.013104957
240	0x6c	-0.052419826
241	0x69	-0.09173469
242	0x6b	-0.06552479
243	0x71	0.013104957
244	0x72	0.026209913
245	0x6c	-0.052419826
246	0x79	0.11794461
247	0x76	0.07862974
248	0x62	-0.18346938
249	0x69	-0.09173469
250	0x5a	-0.28830904
251	0x72	0.026209913
252	0x6c	-0.052419826
253	0x5e	-0.23588923
254	0x63	-0.17036444
255	0x67	-0.11794461

MobilenetV1/MobilenetV1/Conv2d_11_depthwise/weights_quant/FakeQuantWithMinMaxVars u1 [1, 3, 3, 128] scale=0.02411259 zero_point=181
0	0x9d	-0.57870215
1	0xab	-0.2411259
2	0xb1	-0.09645036
3	0xb6	0.02411259
4	0xba	0.12056295
5	0xc3	0.33757627
6	0xb7	0.04822518
7	0xb7	0.04822518
8	0xb2	-0.07233777
9	0xb1	-0.09645036
10	0xb4	-0.02411259
11	0xaf	-0.14467554
12	0xb2	-0.07233777
13	0xb0	-0.12056295
14	0xb1	-0.09645036
15	0xb2	-0.07233777
16	0xb4	-0.02411259
17	0xb0	-0.12056295
18	0xb1	-0.09645036
19	0xbd	0.19290072
20	0xbc	0.16878814
21	0xb6	0.02411259
22	0xb1	-0.09645036
23	0xaa	-0.2652385
24	0xb5	0.0
25	0xac	-0.2170133
26	0xb3	-0.04822518
27	0xb2	-0.07233777
28	0xb5	0.0
29	0xb4	-0.02411259
30	0xb5	0.0
31	0xc5	0.38580143
32	0xba	0.12056295
33	0xb8	0.07233777
34	0xb5	0.0
35	0xb6	0.02411259
36	0xb6	0.02411259
37	0xc0	0.2652385
38	0xb9	0.09645036
39	0xb8	0.07233777
40	0xaf	-0.14467554
41	0xb8	0.07233777
42	0xab	-0.2411259
43	0xad	-0.19290072
44	0xb1	-0.09645036
45	0xba	0.12056295
46	0xb3	-0.04822518
47	0xb8	0.07233777
48	0xc4	0.36168885
49	0xb7	0.04822518
50	0xbb	0.14467554
51	0xc0	0.2652385
52	0xaf	-0.14467554
53	0xb2	-0.07233777
54	0xbc	0.16878814
55	0xb6	0.02411259
56	0xb5	0.0
57	0xc1	0.28935108
58	0xb6	0.02411259
59	0xaf	-0.14467554
60	0xbb	0.14467554
61	0xb4	-0.02411259
62	0xac	-0.2170133
63	0xb8	0.07233777
64	0xb1	-0.09645036
65	0xb6	0.02411259
66	0xbb	0.14467554
67	0xb9	0.09645036
68	0xb6	0.02411259
69	0xc4	0.36168885
70	0xe0	1.0368414
71	0xb0	-0.12056295
72	0xb4	-0.02411259
73	0xb6	0.02411259
74	0xb6	0.02411259
75	0xb1	-0.09645036
76	0xaf	-0.14467554
77	0xaa	-0.2652385
78	0xb4	-0.02411259
79	0xbb	0.14467554
80	0xba	0.12056295
81	0xb0	-0.12056295
82	0xb7	0.04822518
83	0xbf	0.2411259
84	0xc3	0.33757627
85	0xb3	-0.04822518
86	0xb0	-0.12056295
87	0xa8	-0.31346366
88	0xbc	0.16878814
89	0xbd	0.19290072
90	0xae	-0.16878814
91	0xb5	0.0
92	0xb9	0.09645036
93	0xb2	-0.07233777
94	0xb6	0.02411259
95	0xb3	-0.04822518
96	0xbb	0.14467554
97	0xba	0.12056295
98	0xb2	-0.07233777
99	0xb0	-0.12056295
100	0xb5	0.0
101	0xbb	0.14467554
102	0xb5	0.0
103	0xb1	-0.09645036
104	0xb4	-0.02411259
105	0xc1	0.28935108
106	0xb4	-0.02411259
107	0xde	0.98861617
108	0xb6	0.02411259
109	0xba	0.12056295
110	0xb8	0.07233777
111	0xd0	0.6510399
112	0xbb	0.14467554
113	0xaa	-0.2652385
114	0xba	0.12056295
115	0xb5	0.0
116	0xb7	0.04822518
117	0xb8	0.07233777
118	0xaf	-0.14467554
119	0xbf	0.2411259
120	0xc0	0.2652385
121	0xba	0.12056295
122	0xb3	-0.04822518
123	0xb5	0.0
124	0xb9	0.09645036
125	0xb0	-0.12056295
126	0xb8	0.07233777
127	0xad	-0.19290072
128	0xb9	0.09645036
129	0xbd	0.19290072
130	0xab	-0.2411259
131	0xac	-0.2170133
132	0xc7	0.4340266
133	0xc8	0.4581392
134	0xc5	0.38580143
135	0xb6	0.02411259
136	0xc2	0.31346366
137	0xcb	0.530477
138	0xb1	-0.09645036
139	0xae	-0.16878814
140	0xbf	0.2411259
141	0xa9	-0.28935108
142	0xa7	-0.33757627
143	0xae	-0.16878814
144	0xc3	0.33757627
145	0xad	-0.19290072
146	0xa9	-0.28935108
147	0xd4	0.7474903
148	0xc0	0.2652385
149	0xc5	0.38580143
150	0xc6	0.40991402
151	0xc9	0.4822518
152	0xc0	0.2652385
153	0xa4	-0.40991402
154	0xa6	-0.36168885
155	0xb2	-0.07233777
156	0xbb	0.14467554
157	0xae	-0.16878814
158	0xaf	-0.14467554
159	0xb4	-0.02411259
160	0xac	-0.2170133
161	0xac	-0.2170133
162	0xbb	0.14467554
163	0xc0	0.2652385
164	0xbe	0.2170133
165	0xd1	0.67515254
166	0xbd	0.19290072
167	0x99	-0.67515254
168	0xae	-0.16878814
169	0xb0	-0.12056295
170	0xaa	-0.2652385
171	0xb8	0.07233777
172	0xba	0.12056295
173	0xc5	0.38580143
174	0xad	-0.19290072
175	0xca	0.5063644
176	0xb5	0.0
177	0xc2	0.31346366
178	0xbf	0.2411259
179	0xcf	0.6269273
180	0xae	-0.16878814
181	0xae	-0.16878814
182	0xa8	-0.31346366
183	0xc1	0.28935108
184	0xae	-0.16878814
185	0xc4	0.36168885
186	0xae	-0.16878814
187	0xaf	-0.14467554
188	0xcb	0.530477
189	0xbd	0.19290072
190	0xba	0.12056295
191	0xc2	0.31346366
192	0xad	-0.19290072
193	0xc3	0.33757627
194	0xa5	-0.38580143
195	0xc6	0.40991402
196	0xbd	0.19290072
197	0xb7	0.04822518
198	0xb4	-0.02411259
199	0xab	-0.2411259
200	0xad	-0.19290072
201	0xd6	0.79571545
202	0xba	0.12056295
203	0xb0	-0.12056295
204	0xaa	-0.2652385
205	0x9c	-0.60281473
206	0xab	-0.2411259
207	0xc4	0.36168885
208	0xbe	0.2170133
209	0xb0	-0.12056295
210	0xc0	0.2652385
211	0xbe	0.2170133
212	0xe2	1.0850666
213	0xb0	-0.12056295
214	0xae	-0.16878814
215	0x94	-0.79571545
216	0xb6	0.02411259
217	0xb4	-0.02411259
218	0xa8	-0.31346366
219	0xc3	0.33757627
220	0xb9	0.09645036
221	0xac	-0.2170133
222	0xbf	0.2411259
223	0xaf	-0.14467554
224	0xc0	0.2652385
225	0xbd	0.19290072
226	0xaf	-0.14467554
227	0xb0	-0.12056295
228	0xad	-0.19290072
229	0xbd	0.19290072
230	0xc4	0.36168885
231	0xad	-0.19290072
232	0x92	-0.8439406
233	0xbe	0.2170133
234	0xae	-0.16878814
235	0xed	1.3503051
236	0xbe	0.2170133
237	0x9f	-0.530477
238	0xc5	0.38580143
239	0xd8	0.8439406
240	0xa6	-0.36168885
241	0xb0	-0.12056295
242	0xb6	0.02411259
243	0xaf	-0.14467554
244	0xbc	0.16878814
245	0xc0	0.2652385
246	0xb1	-0.09645036
247	0xc5	0.38580143
248	0xc1	0.28935108
249	0xc5	0.38580143
250	0xc1	0.28935108
251	0xb9	0.09645036
252	0xae	-0.16878814
253	0xa4	-0.40991402
254	0xc2	0.31346366
255	0xac	-0.2170133

MobilenetV1/MobilenetV1/Conv2d_11_pointwise/weights_quant/FakeQuantWithMinMaxVars u1 [128, 1, 1, 128] scale=0.007408826 zero_point=124
0	0x73	-0.06667943
1	0x74	-0.05927061
2	0x89	0.09631474
3	0x85	0.06667943
4	0x7c	0.0
5	0x7f	0.022226479
6	0x8d	0.12595004
7	0x70	-0.088905916
8	0x7e	0.014817652
9	0x7c	0.0
10	0x6c	-0.11854122
11	0x84	0.05927061
12	0x7b	-0.007408826
13	0x7d	0.007408826
14	0x80	0.029635305
15	0x89	0.09631474
16	0x88	0.088905916
17	0x7c	0.0
18	0x7b	-0.007408826
19	0x78	-0.029635305
20	0x8c	0.11854122
21	0x7e	0.014817652
22	0x80	0.029635305
23	0x78	-0.029635305
24	0x79	-0.022226479
25	0x79	-0.022226479
26	0x8a	0.10372356
27	0x7d	0.007408826
28	0x8a	0.10372356
29	0x7b	-0.007408826
30	0x71	-0.08149709
31	0x7e	0.014817652
32	0x78	-0.029635305
33	0x8b	0.11113239
34	0x7d	0.007408826
35	0x7d	0.007408826
36	0x69	-0.1407677
37	0x84	0.05927061
38	0x80	0.029635305
39	0x6f	-0.09631474
40	0x8d	0.12595004
41	0x7c	0.0
42	0x87	0.08149709
43	0x75	-0.05186178
44	0x70	-0.088905916
45	0x78	-0.029635305
46	0x7e	0.014817652
47	0x73	-0.06667943
48	0x80	0.029635305
49	0x7f	0.022226479
50	0x7b	-0.007408826
51	0x77	-0.03704413
52	0x8a	0.10372356
53	0x88	0.088905916
54	0x77	-0.03704413
55	0x89	0.09631474
56	0x78	-0.029635305
57	0x7e	0.014817652
58	0x6b	-0.12595004
59	0x72	-0.07408826
60	0x79	-0.022226479
61	0x8b	0.11113239
62	0x83	0.05186178
63	0x76	-0.044452958
64	0x84	0.05927061
65	0x85	0.06667943
66	0x5d	-0.22967361
67	0x75	-0.05186178
68	0x6d	-0.11113239
69	0x7d	0.007408826
70	0x80	0.029635305
71	0x7c	0.0
72	0x82	0.044452958
73	0x77	-0.03704413
74	0x87	0.08149709
75	0x7f	0.022226479
76	0x82	0.044452958
77	0x7f	0.022226479
78	0x79	-0.022226479
79	0x6d	-0.11113239
80	0x80	0.029635305
81	0x80	0.029635305
82	0x89	0.09631474
83	0x7c	0.0
84	0x76	-0.044452958
85	0x80	0.029635305
86	0x77	-0.03704413
87	0x78	-0.029635305
88	0x78	-0.029635305
89	0x79	-0.022226479
90	0x83	0.05186178
91	0x74	-0.05927061
92	0x7e	0.014817652
93	0x79	-0.022226479
94	0x7d	0.007408826
95	0x78	-0.029635305
96	0x64	-0.17781183
97	0x8d	0.12595004
98	0x8a	0.10372356
99	0x74	-0.05927061
100	0x73	-0.06667943
101	0x74	-0.05927061
102	0x68	-0.14817652
103	0x7f	0.022226479
104	0x82	0.044452958
105	0x6d	-0.11113239
106	0x7c	0.0
107	0x84	0.05927061
108	0x7a	-0.014817652
109	0x8a	0.10372356
110	0x70	-0.088905916
111	0x7b	-0.007408826
112	0x82	0.044452958
113	0x87	0.08149709
114	0x82	0.044452958
115	0x76	-0.044452958
116	0x85	0.06667943
117	0x7c	0.0
118	0x82	0.044452958
119	0x7b	-0.007408826
120	0x7c	0.0
121	0x8b	0.11113239
122	0x7c	0.0
123	0x81	0.03704413
124	0x7d	0.007408826
125	0x76	-0.044452958
126	0x7b	-0.007408826
127	0x78	-0.029635305
128	0x79	-0.022226479
129	0x8e	0.13335887
130	0x66	-0.16299418
131	0xa8	0.32598835
132	0x8b	0.11113239
133	0x6e	-0.10372356
134	0x95	0.18522066
135	0x9d	0.24449126
136	0x82	0.044452958
137	0x8a	0.10372356
138	0x92	0.16299418
139	0x8d	0.12595004
140	0x59	-0.2593089
141	0x6c	-0.11854122
142	0xb6	0.4297119
143	0x7f	0.022226479
144	0x78	-0.029635305
145	0x75	-0.05186178
146	0x6f	-0.09631474
147	0x83	0.05186178
148	0xa3	0.2889442
149	0x72	-0.07408826
150	0x91	0.15558535
151	0x7f	0.022226479
152	0x74	-0.05927061
153	0x8a	0.10372356
154	0x91	0.15558535
155	0x6b	-0.12595004
156	0x7b	-0.007408826
157	0xa6	0.3111707
158	0x75	-0.05186178
159	0x37	-0.511209
160	0x7e	0.014817652
161	0x92	0.16299418
162	0x61	-0.2000383
163	0x6e	-0.10372356
164	0x6d	-0.11113239
165	0x56	-0.2815354
166	0x79	-0.022226479
167	0x69	-0.1407677
168	0x6c	-0.11854122
169	0x57	-0.27412656
170	0x7f	0.022226479
171	0x80	0.029635305
172	0x64	-0.17781183
173	0x8a	0.10372356
174	0x7e	0.014817652
175	0x83	0.05186178
176	0x76	-0.044452958
177	0x8e	0.13335887
178	0x5b	-0.24449126
179	0x8b	0.11113239
180	0x74	-0.05927061
181	0x8a	0.10372356
182	0x67	-0.15558535
183	0x83	0.05186178
184	0x46	-0.4000766
185	0x7d	0.007408826
186	0x68	-0.14817652
187	0x74	-0.05927061
188	0x55	-0.2889442
189	0x79	-0.022226479
190	0x80	0.029635305
191	0x99	0.21485595
192	0x8c	0.11854122
193	0x7f	0.022226479
194	0x6b	-0.12595004
195	0x7d	0.007408826
196	0x8a	0.10372356
197	0x79	-0.022226479
198	0x87	0.08149709
199	0x5d	-0.22967361
200	0x73	-0.06667943
201	0x8a	0.10372356
202	0x80	0.029635305
203	0x6c	-0.11854122
204	0x76	-0.044452958
205	0x96	0.19262949
206	0x88	0.088905916
207	0x80	0.029635305
208	0x7e	0.014817652
209	0x8a	0.10372356
210	0x80	0.029635305
211	0x7a	-0.014817652
212	0x7d	0.007408826
213	0x7c	0.0
214	0x8b	0.11113239
215	0x68	-0.14817652
216	0x81	0.03704413
217	0x6b	-0.12595004
218	0x6e	-0.10372356
219	0x79	-0.022226479
220	0x79	-0.022226479
221	0x6b	-0.12595004
222	0x7d	0.007408826
223	0x6c	-0.11854122
224	0xa4	0.29635304
225	0x59	-0.2593089
226	0x77	-0.03704413
227	0x9a	0.22226478
228	0x79	-0.022226479
229	0x70	-0.088905916
230	0x89	0.09631474
231	0x7a	-0.014817652
232	0x7f	0.022226479
233	0x8c	0.11854122
234	0x57	-0.27412656
235	0x71	-0.08149709
236	0x7a	-0.014817652
237	0x74	-0.05927061
238	0x73	-0.06667943
239	0x78	-0.029635305
240	0x84	0.05927061
241	0x73	-0.06667943
242	0x81	0.03704413
243	0x6a	-0.13335887
244	0x6b	-0.12595004
245	0x87	0.08149709
246	0x6e	-0.10372356
247	0x85	0.06667943
248	0xae	0.37044132
249	0x71	-0.08149709
250	0x79	-0.022226479
251	0x7a	-0.014817652
252	0x66	-0.16299418
253	0x76	-0.044452958
254	0x82	0.044452958
255	0x7f	0.022226479

MobilenetV1/MobilenetV1/Conv2d_12_depthwise/weights_quant/FakeQuantWithMinMaxVars u1 [1, 3, 3, 128] scale=0.031248745 zero_point=65
0	0x38	-0.2812387
1	0x3c	-0.15624373
2	0x37	-0.31248745
3	0x4d	0.37498492
4	0x48	0.21874121
5	0x4d	0.37498492
6	0x3d	-0.12499498
7	0x48	0.21874121
8	0x3b	-0.18749246
9	0x36	-0.3437362
10	0x46	0.15624373
11	0x4b	0.31248745
12	0x39	-0.24998996
13	0x3c	-0.15624373
14	0x48	0.21874121
15	0x3d	-0.12499498
16	0x47	0.18749246
17	0x38	-0.2812387
18	0x3d	-0.12499498
19	0x3b	-0.18749246
20	0x4e	0.40623367
21	0x49	0.24998996
22	0x4b	0.31248745
23	0x4d	0.37498492
24	0x4c	0.3437362
25	0x3d	-0.12499498
26	0x40	-0.031248745
27	0x48	0.21874121
28	0x3c	-0.15624373
29	0x39	-0.24998996
30	0x4c	0.3437362
31	0x47	0.18749246
32	0x48	0.21874121
33	0x3c	-0.15624373
34	0x4a	0.2812387
35	0x3a	-0.21874121
36	0x47	0.18749246
37	0x33	-0.43748242
38	0x17	-1.3124473
39	0x3a	-0.21874121
40	0x38	-0.2812387
41	0x3c	-0.15624373
42	0x47	0.18749246
43	0x4c	0.3437362
44	0x3c	-0.15624373
45	0x38	-0.2812387
46	0x49	0.24998996
47	0x39	-0.24998996
48	0x4b	0.31248745
49	0x38	-0.2812387
50	0x47	0.18749246
51	0x4a	0.2812387
52	0x4a	0.2812387
53	0x35	-0.37498492
54	0x4a	0.2812387
55	0x38	-0.2812387
56	0x48	0.21874121
57	0x48	0.21874121
58	0x38	-0.2812387
59	0x4b	0.31248745
60	0x49	0.24998996
61	0x38	-0.2812387
62	0x39	-0.24998996
63	0x3a	-0.21874121
64	0x37	-0.31248745
65	0x4d	0.37498492
66	0x49	0.24998996
67	0x47	0.18749246
68	0x38	-0.2812387
69	0x4b	0.31248745
70	0x4b	0.31248745
71	0x4b	0.31248745
72	0x3c	-0.15624373
73	0x4b	0.31248745
74	0x46	0.15624373
75	0x4a	0.2812387
76	0x48	0.21874121
77	0x4a	0.2812387
78	0x49	0.24998996
79	0x4c	0.3437362
80	0x3c	-0.15624373
81	0x48	0.21874121
82	0x4a	0.2812387
83	0x49	0.24998996
84	0x38	-0.2812387
85	0x3b	-0.18749246
86	0x49	0.24998996
87	0x3e	-0.09374623
88	0x36	-0.3437362
89	0x4a	0.2812387
90	0x3c	-0.15624373
91	0x38	-0.2812387
92	0x4a	0.2812387
93	0x49	0.24998996
94	0x49	0.24998996
95	0x4a	0.2812387
96	0x48	0.21874121
97	0x49	0.24998996
98	0x3c	-0.15624373
99	0x48	0.21874121
100	0x34	-0.40623367
101	0x20	-1.0312085
102	0x4c	0.3437362
103	0x4c	0.3437362
104	0x4e	0.40623367
105	0x3c	-0.15624373
106	0x3d	-0.12499498
107	0x39	-0.24998996
108	0x37	-0.31248745
109	0x8f	2.437402
110	0x45	0.12499498
111	0x48	0.21874121
112	0x47	0.18749246
113	0x4e	0.40623367
114	0x3c	-0.15624373
115	0x3d	-0.12499498
116	0x35	-0.37498492
117	0x4d	0.37498492
118	0x3a	-0.21874121
119	0x3c	-0.15624373
120	0x4b	0.31248745
121	0x3a	-0.21874121
122	0x4b	0.31248745
123	0x48	0.21874121
124	0x49	0.24998996
125	0x38	-0.2812387
126	0x3b	-0.18749246
127	0x48	0.21874121
128	0x36	-0.3437362
129	0x3b	-0.18749246
130	0x39	-0.24998996
131	0x50	0.46873116
132	0x4a	0.2812387
133	0x4f	0.43748242
134	0x3c	-0.15624373
135	0x4a	0.2812387
136	0x3a	-0.21874121
137	0x36	-0.3437362
138	0x47	0.18749246
139	0x4d	0.37498492
140	0x37	-0.31248745
141	0x3a	-0.21874121
142	0x49	0.24998996
143	0x3c	-0.15624373
144	0x48	0.21874121
145	0x36	-0.3437362
146	0x3c	-0.15624373
147	0x39	-0.24998996
148	0x50	0.46873116
149	0x4b	0.31248745
150	0x4e	0.40623367
151	0x50	0.46873116
152	0x4f	0.43748242
153	0x3c	-0.15624373
154	0x40	-0.031248745
155	0x4a	0.2812387
156	0x3b	-0.18749246
157	0x36	-0.3437362
158	0x4e	0.40623367
159	0x49	0.24998996
160	0x4a	0.2812387
161	0x3b	-0.18749246
162	0x4c	0.3437362
163	0x38	-0.2812387
164	0x49	0.24998996
165	0x2f	-0.5624774
166	0x4f	0.43748242
167	0x58	0.71872115
168	0x35	-0.37498492
169	0x3a	-0.21874121
170	0x49	0.24998996
171	0x4e	0.40623367
172	0x3a	-0.21874121
173	0x35	-0.37498492
174	0x4b	0.31248745
175	0x37	-0.31248745
176	0x4d	0.37498492
177	0x36	-0.3437362
178	0x49	0.24998996
179	0x47	0.18749246
180	0x4c	0.3437362
181	0x32	-0.46873116
182	0x4c	0.3437362
183	0x36	-0.3437362
184	0x4a	0.2812387
185	0x4a	0.2812387
186	0x36	-0.3437362
187	0x4d	0.37498492
188	0x4b	0.31248745
189	0x36	-0.3437362
190	0x37	-0.31248745
191	0x38	-0.2812387
192	0x35	-0.37498492
193	0x4f	0.43748242
194	0x4c	0.3437362
195	0x49	0.24998996
196	0x36	-0.3437362
197	0x4f	0.43748242
198	0x4e	0.40623367
199	0x4e	0.40623367
200	0x3b	-0.18749246
201	0x4d	0.37498492
202	0x48	0.21874121
203	0x4c	0.3437362
204	0x49	0.24998996
205	0x4c	0.3437362
206	0x4b	0.31248745
207	0x4f	0.43748242
208	0x3b	-0.18749246
209	0x4a	0.2812387
210	0x4c	0.3437362
211	0x4b	0.31248745
212	0x38	-0.2812387
213	0x39	-0.24998996
214	0x4c	0.3437362
215	0x3d	-0.12499498
216	0x34	-0.40623367
217	0x4d	0.37498492
218	0x3b	-0.18749246
219	0x36	-0.3437362
220	0x4d	0.37498492
221	0x4c	0.3437362
222	0x4d	0.37498492
223	0x4d	0.37498492
224	0x4a	0.2812387
225	0x4b	0.31248745
226	0x3b	-0.18749246
227	0x49	0.24998996
228	0x32	-0.46873116
229	0x24	-0.9062136
230	0x4d	0.37498492
231	0x4e	0.40623367
232	0x51	0.4999799
233	0x3a	-0.21874121
234	0x3c	-0.15624373
235	0x37	-0.31248745
236	0x36	-0.3437362
237	0x90	2.4686508
238	0x46	0.15624373
239	0x4a	0.2812387
240	0x49	0.24998996
241	0x4f	0.43748242
242	0x3b	-0.18749246
243	0x3d	-0.12499498
244	0x33	-0.43748242
245	0x50	0.46873116
246	0x38	-0.2812387
247	0x3b	-0.18749246
248	0x4e	0.40623367
249	0x39	-0.24998996
250	0x4d	0.37498492
251	0x4a	0.2812387
252	0x4b	0.31248745
253	0x36	-0.3437362
254	0x3a	-0.21874121
255	0x4b	0.31248745

MobilenetV1/MobilenetV1/Conv2d_12_pointwise/weights_quant/FakeQuantWithMinMaxVars u1 [256, 1, 1, 128] scale=0.011476306 zero_point=87
0	0x5f	0.09181045
1	0x5b	0.045905225
2	0x48	-0.17214459
3	0x4f	-0.09181045
4	0x40	-0.26395506
5	0x5b	0.045905225
6	0x55	-0.022952612
7	0x56	-0.011476306
8	0x58	0.011476306
9	0x5a	0.034428917
10	0x4b	-0.13771567
11	0x61	0.114763066
12	0x58	0.011476306
13	0x5f	0.09181045
14	0x4a	-0.14919198
15	0x5a	0.034428917
16	0x56	-0.011476306
17	0x5c	0.057381533
18	0x4f	-0.09181045
19	0x67	0.1836209
20	0x5d	0.068857834
21	0x4b	-0.13771567
22	0x4f	-0.09181045
23	0x55	-0.022952612
24	0x51	-0.068857834
25	0x4e	-0.10328676
26	0x50	-0.08033414
27	0x62	0.12623937
28	0x51	-0.068857834
29	0x5b	0.045905225
30	0x51	-0.068857834
31	0x55	-0.022952612
32	0x57	0.0
33	0x61	0.114763066
34	0x5d	0.068857834
35	0x4a	-0.14919198
36	0x6b	0.22952613
37	0x4b	-0.13771567
38	0x58	0.011476306
39	0x69	0.20657352
40	0x55	-0.022952612
41	0x4e	-0.10328676
42	0x62	0.12623937
43	0x6b	0.22952613
44	0x5f	0.09181045
45	0x53	-0.045905225
46	0x51	-0.068857834
47	0x5a	0.034428917
48	0x58	0.011476306
49	0x56	-0.011476306
50	0x52	-0.057381533
51	0x66	0.17214459
52	0x57	0.0
53	0x51	-0.068857834
54	0x5e	0.08033414
55	0x59	0.022952612
56	0x51	-0.068857834
57	0x46	-0.19509721
58	0x3e	-0.28690764
59	0x64	0.14919198
60	0x4f	-0.09181045
61	0x5c	0.057381533
62	0x55	-0.022952612
63	0x52	-0.057381533
64	0x51	-0.068857834
65	0x50	-0.08033414
66	0x4d	-0.114763066
67	0x67	0.1836209
68	0x45	-0.20657352
69	0x5f	0.09181045
70	0x66	0.17214459
71	0x73	0.32133657
72	0x49	-0.16066828
73	0x5f	0.09181045
74	0x4d	-0.114763066
75	0x59	0.022952612
76	0x45	-0.20657352
77	0x5a	0.034428917
78	0x5f	0.09181045
79	0x57	0.0
80	0x4f	-0.09181045
81	0x64	0.14919198
82	0x5b	0.045905225
83	0x4b	-0.13771567
84	0x48	-0.17214459
85	0x5a	0.034428917
86	0x40	-0.26395506
87	0x47	-0.1836209
88	0x46	-0.19509721
89	0x54	-0.034428917
90	0x50	-0.08033414
91	0x4b	-0.13771567
92	0x4b	-0.13771567
93	0x6b	0.22952613
94	0x56	-0.011476306
95	0x4b	-0.13771567
96	0x4c	-0.12623937
97	0x4e	-0.10328676
98	0x62	0.12623937
99	0x51	-0.068857834
100	0x55	-0.022952612
101	0x69	0.20657352
102	0x62	0.12623937
103	0x58	0.011476306
104	0x64	0.14919198
105	0x58	0.011476306
106	0x44	-0.21804982
107	0x5f	0.09181045
108	0x56	-0.011476306
109	0x51	-0.068857834
110	0x4d	-0.114763066
111	0x58	0.011476306
112	0x55	-0.022952612
113	0x50	-0.08033414
114	0x4c	-0.12623937
115	0x56	-0.011476306
116	0x43	-0.22952613
117	0x56	-0.011476306
118	0x43	-0.22952613
119	0x4b	-0.13771567
120	0x67	0.1836209
121	0x6c	0.24100243
122	0x57	0.0
123	0x60	0.10328676
124	0x62	0.12623937
125	0x58	0.011476306
126	0x59	0.022952612
127	0x46	-0.19509721
128	0x5d	0.068857834
129	0x54	-0.034428917
130	0x5d	0.068857834
131	0x4f	-0.09181045
132	0x5a	0.034428917
133	0x5f	0.09181045
134	0x4c	-0.12623937
135	0x76	0.3557655
136	0x4b	-0.13771567
137	0x52	-0.057381533
138	0x6e	0.26395506
139	0x5c	0.057381533
140	0x63	0.13771567
141	0x55	-0.022952612
142	0x4f	-0.09181045
143	0x38	-0.3557655
144	0x53	-0.045905225
145	0x51	-0.068857834
146	0x61	0.114763066
147	0x68	0.19509721
148	0x51	-0.068857834
149	0x70	0.28690764
150	0x5a	0.034428917
151	0x66	0.17214459
152	0x52	-0.057381533
153	0x4b	-0.13771567
154	0x5e	0.08033414
155	0x63	0.13771567
156	0x54	-0.034428917
157	0x63	0.13771567
158	0x50	-0.08033414
159	0x3f	-0.27543133
160	0x52	-0.057381533
161	0x5b	0.045905225
162	0x52	-0.057381533
163	0x5e	0.08033414
164	0x58	0.011476306
165	0x4b	-0.13771567
166	0x53	-0.045905225
167	0x5f	0.09181045
168	0x4e	-0.10328676
169	0x4d	-0.114763066
170	0x65	0.16066828
171	0x61	0.114763066
172	0x4b	-0.13771567
173	0x62	0.12623937
174	0x54	-0.034428917
175	0x60	0.10328676
176	0x5a	0.034428917
177	0x4c	-0.12623937
178	0x49	-0.16066828
179	0x5d	0.068857834
180	0x56	-0.011476306
181	0x6e	0.26395506
182	0x64	0.14919198
183	0x61	0.114763066
184	0x53	-0.045905225
185	0x4c	-0.12623937
186	0x4f	-0.09181045
187	0x55	-0.022952612
188	0x4b	-0.13771567
189	0x45	-0.20657352
190	0x50	-0.08033414
191	0x46	-0.19509721
192	0x42	-0.24100243
193	0x49	-0.16066828
194	0x6d	0.25247875
195	0x49	-0.16066828
196	0x62	0.12623937
197	0x63	0.13771567
198	0x4b	-0.13771567
199	0x45	-0.20657352
200	0x4e	-0.10328676
201	0x6d	0.25247875
202	0x77	0.3672418
203	0x63	0.13771567
204	0x45	-0.20657352
205	0x58	0.011476306
206	0x5f	0.09181045
207	0x68	0.19509721
208	0x6a	0.21804982
209	0x64	0.14919198
210	0x50	-0.08033414
211	0x56	-0.011476306
212	0x4d	-0.114763066
213	0x49	-0.16066828
214	0x4b	-0.13771567
215	0x4d	-0.114763066
216	0x3f	-0.27543133
217	0x43	-0.22952613
218	0x48	-0.17214459
219	0x5f	0.09181045
220	0x6d	0.25247875
221	0x3e	-0.28690764
222	0x66	0.17214459
223	0x58	0.011476306
224	0x4f	-0.09181045
225	0x3f	-0.27543133
226	0x50	-0.08033414
227	0x6a	0.21804982
228	0x49	-0.16066828
229	0x62	0.12623937
230	0x61	0.114763066
231	0x52	-0.057381533
232	0x6b	0.22952613
233	0x5f	0.09181045
234	0x32	-0.42462334
235	0x4f	-0.09181045
236	0x5d	0.068857834
237	0x54	-0.034428917
238	0x64	0.14919198
239	0x70	0.28690764
240	0x4b	-0.13771567
241	0x50	-0.08033414
242	0x63	0.13771567
243	0x49	-0.16066828
244	0x61	0.114763066
245	0x62	0.12623937
246	0x49	-0.16066828
247	0x48	-0.17214459
248	0x6a	0.21804982
249	0x59	0.022952612
250	0x36	-0.3787181
251	0x73	0.32133657
252	0x52	-0.057381533
253	0x58	0.011476306
254	0x65	0.16066828
255	0x29	-0.5279101

MobilenetV1/MobilenetV1/Conv2d_13_depthwise/weights_quant/FakeQuantWithMinMaxVars u1 [1, 3, 3, 256] scale=0.031299766 zero_point=178
0	0xc6	0.62599534
1	0xac	-0.18779859
2	0xa7	-0.34429744
3	0xa5	-0.40689695
4	0xd6	1.1267916
5	0x54	-2.942178
6	0x9c	-0.6885949
7	0xac	-0.18779859
8	0xb8	0.18779859
9	0xbd	0.34429744
10	0xa7	-0.34429744
11	0xa9	-0.2816979
12	0xa1	-0.532096
13	0xbc	0.31299767
14	0xac	-0.18779859
15	0xa9	-0.2816979
16	0xb0	-0.06259953
17	0xa6	-0.37559718
18	0xa5	-0.40689695
19	0xbf	0.40689695
20	0xbc	0.31299767
21	0x6a	-2.2535832
22	0xbe	0.37559718
23	0xa2	-0.50079626
24	0xad	-0.15649883
25	0xc8	0.6885949
26	0xbe	0.37559718
27	0xbe	0.37559718
28	0xaa	-0.25039813
29	0xa4	-0.43819672
30	0xab	-0.21909836
31	0xbb	0.2816979
32	0xd1	0.97029275
33	0xc3	0.532096
34	0xa7	-0.34429744
35	0xbe	0.37559718
36	0xbf	0.40689695
37	0xac	-0.18779859
38	0xa7	-0.34429744
39	0xbe	0.37559718
40	0xc6	0.62599534
41	0xab	-0.21909836
42	0xd2	1.0015925
43	0xac	-0.18779859
44	0xa4	-0.43819672
45	0xc6	0.62599534
46	0xc1	0.4694965
47	0xdb	1.2832904
48	0xac	-0.18779859
49	0x8a	-1.2519907
50	0x9f	-0.59469557
51	0x9f	-0.59469557
52	0xa7	-0.34429744
53	0xbc	0.31299767
54	0xbc	0.31299767
55	0xdc	1.3145902
56	0xc8	0.6885949
57	0xac	-0.18779859
58	0xbc	0.31299767
59	0xa7	-0.34429744
60	0x36	-3.881171
61	0xab	-0.21909836
62	0xa6	-0.37559718
63	0xc0	0.43819672
64	0xaa	-0.25039813
65	0x8b	-1.2206908
66	0xbf	0.40689695
67	0xc0	0.43819672
68	0xac	-0.18779859
69	0xaa	-0.25039813
70	0xc1	0.4694965
71	0xb9	0.21909836
72	0xa5	-0.40689695
73	0x9a	-0.75119436
74	0xbd	0.34429744
75	0xa0	-0.5633958
76	0xa2	-0.50079626
77	0xa9	-0.2816979
78	0xd9	1.2206908
79	0xd5	1.0954918
80	0xbc	0.31299767
81	0xaf	-0.093899295
82	0xb9	0.21909836
83	0xc0	0.43819672
84	0xc0	0.43819672
85	0xcb	0.7824941
86	0xc0	0.43819672
87	0xa7	-0.34429744
88	0xa7	-0.34429744
89	0xbb	0.2816979
90	0xbf	0.40689695
91	0x8b	-1.2206908
92	0x86	-1.3771898
93	0xaa	-0.25039813
94	0xac	-0.18779859
95	0xbc	0.31299767
96	0xde	1.3771898
97	0xdd	1.3458899
98	0xac	-0.18779859
99	0xa9	-0.2816979
100	0xbd	0.34429744
101	0xa7	-0.34429744
102	0x84	-1.4397893
103	0xe0	1.4397893
104	0xd7	1.1580913
105	0xc5	0.59469557
106	0xa2	-0.50079626
107	0xac	-0.18779859
108	0xb2	0.0
109	0xc1	0.4694965
110	0xc3	0.532096
111	0xdc	1.3145902
112	0xa6	-0.37559718
113	0xab	-0.21909836
114	0xcb	0.7824941
115	0x36	-3.881171
116	0xe4	1.5649883
117	0xa5	-0.40689695
118	0xa5	-0.40689695
119	0xc0	0.43819672
120	0x70	-2.0657845
121	0xa8	-0.31299767
122	0xc2	0.50079626
123	0xaa	-0.25039813
124	0xc1	0.4694965
125	0xa7	-0.34429744
126	0xac	-0.18779859
127	0xbc	0.31299767
128	0xab	-0.21909836
129	0xbd	0.34429744
130	0xb5	0.093899295
131	0xb8	0.18779859
132	0xae	-0.12519906
133	0xa9	-0.2816979
134	0xa6	-0.37559718
135	0xaa	-0.25039813
136	0xc4	0.5633958
137	0xa5	-0.40689695
138	0xc3	0.532096
139	0xc7	0.6572951
140	0xa4	-0.43819672
141	0xd5	1.0954918
142	0xa9	-0.2816979
143	0xaa	-0.25039813
144	0xc5	0.59469557
145	0xb8	0.18779859
146	0xc0	0.43819672
147	0xbd	0.34429744
148	0xcc	0.8137939
149	0xa9	-0.2816979
150	0xa5	-0.40689695
151	0xa9	-0.2816979
152	0xa6	-0.37559718
153	0xc4	0.5633958
154	0xa5	-0.40689695
155	0xb9	0.21909836
156	0xcb	0.7824941
157	0xa6	-0.37559718
158	0xc9	0.71989465
159	0x95	-0.9076932
160	0xc2	0.50079626
161	0xbf	0.40689695
162	0xc2	0.50079626
163	0xc1	0.4694965
164	0xc8	0.6885949
165	0xb1	-0.031299766
166	0xa2	-0.50079626
167	0xba	0.25039813
168	0xb6	0.12519906
169	0xa6	-0.37559718
170	0xa9	-0.2816979
171	0x9c	-0.6885949
172	0xc2	0.50079626
173	0xa7	-0.34429744
174	0xc6	0.62599534
175	0xce	0.87639344
176	0xb6	0.12519906
177	0xaa	-0.25039813
178	0xca	0.75119436
179	0xa8	-0.31299767
180	0xac	-0.18779859
181	0xc3	0.532096
182	0xde	1.3771898
183	0xb9	0.21909836
184	0xa1	-0.532096
185	0xa7	-0.34429744
186	0xa4	-0.43819672
187	0xbd	0.34429744
188	0x9c	-0.6885949
189	0xab	-0.21909836
190	0xc3	0.532096
191	0xa6	-0.37559718
192	0xbb	0.2816979
193	0xa3	-0.4694965
194	0xc2	0.50079626
195	0x98	-0.8137939
196	0xd6	1.1267916
197	0xbe	0.37559718
198	0xbc	0.31299767
199	0xbe	0.37559718
200	0xa7	-0.34429744
201	0xc8	0.6885949
202	0xa8	-0.31299767
203	0xab	-0.21909836
204	0xa8	-0.31299767
205	0x9a	-0.75119436
206	0xd1	0.97029275
207	0xbe	0.37559718
208	0xbf	0.40689695
209	0xaa	-0.25039813
210	0xc4	0.5633958
211	0xbf	0.40689695
212	0xac	-0.18779859
213	0xbd	0.34429744
214	0xa7	-0.34429744
215	0xa5	-0.40689695
216	0xa6	-0.37559718
217	0xa1	-0.532096
218	0x9d	-0.6572951
219	0xba	0.25039813
220	0xbf	0.40689695
221	0xbf	0.40689695
222	0xad	-0.15649883
223	0xbb	0.2816979
224	0xa8	-0.31299767
225	0xbb	0.2816979
226	0xad	-0.15649883
227	0xb8	0.18779859
228	0xb4	0.06259953
229	0xa3	-0.4694965
230	0xbd	0.34429744
231	0xab	-0.21909836
232	0xad	-0.15649883
233	0xbb	0.2816979
234	0xdc	1.3145902
235	0xd1	0.97029275
236	0xb8	0.18779859
237	0xbc	0.31299767
238	0xac	-0.18779859
239	0xa5	-0.40689695
240	0xab	-0.21909836
241	0xbf	0.40689695
242	0xc3	0.532096
243	0x1e	-4.632365
244	0xaf	-0.093899295
245	0xdb	1.2832904
246	0xa1	-0.532096
247	0xc0	0.43819672
248	0xad	-0.15649883
249	0xab	-0.21909836
250	0xad	-0.15649883
251	0xcc	0.8137939
252	0x92	-1.0015925
253	0xbe	0.37559718
254	0xaa	-0.25039813
255	0xc4	0.5633958
